data.pth (torch, 8426 bytes, 6 tensors)

l1.weight f4 [16, 56]
00000000: 166a 38bd 564e 01be 9a4f babe 57b1 04be
00000010: c8ea c8bd ff04 ffbd 2e4c e13d fe5f 243e
00000020: c8ff a6bd 2759 913e 7201 4ebe 94f1 b33e
00000030: de4f 66be 060a 0cbf e2a3 dcbd 7efd 923d
00000040: 81b9 333e b846 16be 7ea0 c4be c965 81be
00000050: 6034 02bf 4440 fcbe 3633 02bf ff4a 063b
00000060: e5b8 03bb b58c 8fbe f571 7fbe a3ea 56be
00000070: 41d2 763e 6791 6abd 0a0a b9bd afda b93e
00000080: fbbd 89bd 52fb 153e 07da 063e 2691 0bbd
00000090: 4f7f da3e 8184 85bd 68bf 17be c73f 2a3f
000000a0: 5b50 13be f872 0a3f 4053 643e cf2d 8b3e
000000b0: dd69 b83c f83e a63d cfde 153f 604b 87be
000000c0: b208 733e a4ac cc3d b36c bb3c 6bef b73e
000000d0: 3faa e93e ab55 a83d fe88 9dbe 58dc b73e
000000e0: dd16 193d 042d 4e3e 3fc2 c53e b98b c23e
000000f0: a386 413e e8b3 863e 87b7 66be e920 27bd
00000100: e3f5 69be 4787 103e 8988 333e acd0 e7bd
00000110: f8bf e1be be88 30bf a478 703d f16f 48bd
00000120: 20c0 5bbc 123e ef3d 0914 e93b f024 adbe
00000130: 3696 eebd c6b1 10be 62ed 58be 9f65 263e
00000140: 3f8f e0bc 3f28 80bc ebf2 d63e 8b39 4abe
00000150: cc1d 0e3f bb85 12bd 8a00 abbc dfac 863e
00000160: 020f d2bd 5d7f a33d 4c9d 863d 1a5c b33b
00000170: 5b4c c53e 9dac 823e 2659 75be 92de a83e
00000180: c28b 10be 89e6 053f 6a2b 93be a3af 9a3d
00000190: 747a 0cbd 5a7a 7abe e68b 5d3e fc02 b13e
000001a0: 2226 253e 5c46 02bf 3d12 5b3e 00ee 2b3e
000001b0: cedf 39bd e465 fa3d aeb9 9a3d 5779 313e
000001c0: 7a21 89be 6b37 0a3d ecdd 253f 0315 1b3e
000001d0: 1b97 023f cd9e c53e 7900 ae3e 6768 683b
000001e0: 4525 93be 4ce3 d43c e4d2 363e 1c9d c83e
000001f0: fc52 7ebe 1136 03bf a05f e73e ef76 3e3b
00000200: 345e 0ebc 120a a83e 74dc c83e 931d a7be
00000210: bdbb fd3e bfe8 e43e 9761 d13e 13ff d93e
00000220: 9b24 8bbd 6ff4 423e 5455 633e 383f 4ebe
00000230: a106 793e 86ba fbbd 4659 773e 0dc0 b13e
00000240: 85b1 c03d bfd2 50bd 6d81 4e3c 7ef5 433e
00000250: 9082 7f3e 941a b03d 9b50 5b3e 35db 8fbe
00000260: 524d 81be 4bc3 383f 4646 3a3e c4cd 103e
00000270: 8918 93be d420 c53e af13 133c 7830 7d3e
00000280: 4aef 263e ac1b a03e ec28 be3e 2c91 2fbd
00000290: 31be dd3e 4576 85ba 6ec7 e0bb 07a3 2a3e
000002a0: 4aa1 113f 3db2 803e cfbe e1be 7cf8 4dbe
000002b0: fd79 bebe 7208 a9bd ff40 4abe d49e 293e
000002c0: 7a02 fbbd 8911 01be df7f ce3e f8ab fc3e
000002d0: 6e5b f4bd 3ffb 4dbf 4179 193e 4389 513e
000002e0: 4a7c 00bd f8c7 d23d dd37 973c 5caa 91be
000002f0: 5963 6e3e 1853 633c 8873 303e a5f3 a03d
00000300: 1883 453e 1b54 903e 3601 583d 7c52 4a3d
00000310: 7c61 1f3f 7228 0f3e bfac eb3d 0295 de3e
00000320: ac86 a43e 1d29 2dbc 577d 05bd 3c03 c53c
00000330: 18cc 2f3e 3792 583e 32a0 173e 86aa e8bd
00000340: 2a82 4ebe bede 583f d5c1 7e3e 2177 8f3c
00000350: 11e9 413f ab30 ad3e a636 d93c e458 81bd
00000360: 04e7 1dbe 7957 2fbe a318 9a3e f87e 0ebd
00000370: 66b2 ba3e 425b 3e3e ebd9 883e ac2b fd3d
00000380: c31f e83e a237 53be cfc2 4c3e dffb 97bd
00000390: 9f93 d23e 5b87 fc3d c60f 223e c486 c33d
000003a0: fdab 243f c97a 053e 407a 02be fc37 d53e
000003b0: 0814 d8be dc14 07bf 2365 52bd 7c9a 743e
000003c0: d19a f73e 51ff d63d 09d4 bcbe 302f ab3e
000003d0: b06b 8cbe 8b59 e7be 635e eabe 590e d63d
000003e0: 552b 81bd 5b4e 09be 7e7e 933d 88b6 f03e
000003f0: 575b babe 8935 683d a3a3 e13a 3f30 223e
-0.045023046 -0.12627539 -0.36388856 -0.12958275 -0.09810406 -0.12452125 0.11000858 0.16052243
-0.08154255 0.2838833 -0.20117739 0.35145247 -0.22491404 -0.54702795 -0.10773446 0.07177256
0.17551233 -0.14675415 -0.38403696 -0.25272968 -0.5086117 -0.4926778 -0.5085939 0.0020491478
-0.002009922 -0.28037038 -0.24945815 -0.20987944 0.24103643 -0.057267573 -0.09035118 0.36299655
-0.06725689 0.14646652 0.13169108 -0.03407397 0.42675254 -0.06519414 -0.1481911 0.66503567
-0.14386122 0.5408168 0.22297382 0.27183387 0.022511417 0.08117479 0.58543104 -0.26424694
0.23733786 0.09993866 0.02287898 0.3592485 0.456377 0.08219465 -0.3076858 0.35910296
0.03737532 0.2013436 0.3862476 0.37997225 0.18899016 0.26309133 -0.22530948 -0.04080287
-0.22847705 0.14114104 0.17532553 -0.11319098 -0.44091773 -0.6895865 0.058708802 -0.04893488
-0.013412505 0.11681761 0.007112984 -0.33817244 -0.11649744 -0.14130315 -0.21184304 0.16249703
-0.027412055 -0.01564419 0.41982207 -0.19748513 0.55514216 -0.035772067 -0.02087428 0.26303765
-0.10256769 0.07983277 0.06572971 0.005473626 0.38534817 0.25522318 -0.23959789 0.32982308
-0.14115813 0.52304894 -0.2874406 0.07553031 -0.034296468 -0.24460736 0.21635398 0.3457259
0.16127828 -0.5088861 0.21393676 0.16790009 -0.045379452 0.12226465 0.07554947 0.17331444
-0.26783353 0.033744257 0.6479175 0.15144734 0.5101182 0.38597718 0.33984736 0.003546262
-0.28739372 0.02598729 0.17853886 0.39182365 -0.24836344 -0.51254374 0.45190144 0.002906259
-0.008689452 0.32820183 0.39230692 -0.3263975 0.49557295 0.4470882 0.40894768 0.4257742
-0.06794091 0.19038557 0.22200519 -0.20141304 0.24318935 -0.12291436 0.24155149 0.34716836
0.09408859 -0.050982233 0.0126041 0.19136617 0.2495215 0.085988194 0.21417467 -0.2809693
-0.25254303 0.72172993 0.1819087 0.14140993 -0.28729656 0.38501608 0.008976861 0.2472552
0.16302219 0.31271112 0.37140596 -0.042863056 0.43309167 -0.0010182342 -0.0068597114 0.16663752
0.5688673 0.25135985 -0.44090888 -0.2011432 -0.37202445 -0.08253564 -0.19751357 0.16564494
-0.12256332 -0.12604345 0.40331933 0.49349952 -0.11931501 -0.80461496 0.14987661 0.20462517
-0.03136853 0.10292047 0.018459255 -0.28450286 0.23280086 0.013874792 0.17231572 0.078589715
0.1928829 0.28189167 0.05273553 0.04939507 0.62258124 0.13980272 0.11507558 0.4347306
0.32133996 -0.010568884 -0.032590237 0.024049394 0.171677 0.21149527 0.14807203 -0.1136065
-0.20166841 0.8471488 0.24878629 0.01751286 0.75746256 0.33826193 0.026515316 -0.06315783
-0.15420157 -0.17123212 0.3009692 -0.034789056 0.36464232 0.185895 0.26728758 0.123618454
0.45336732 -0.20626691 0.19996189 -0.074210875 0.4112825 0.123305045 0.1582633 0.09547189
0.64324933 0.1303512 -0.12741947 0.41644275 -0.42202783 -0.52766204 -0.051365983 0.23887056
0.48360303 0.104979165 -0.3688052 0.3343444 -0.2742591 -0.45185503 -0.45775136 0.10451955
-0.06307093 -0.13408796 0.07201861 0.4701426 -0.36397812 0.05669168 0.0017214905 0.15838717

l1.bias f4 [16]
00000000: 1e39 023f 8707 6a3e 0617 933e 1c88 fa3d
00000010: 4d47 f03e 1733 033f 33b7 0a3f a557 3b3f
00000020: a0aa e03e 4a75 d03e cb13 d93e cdfa 903e
00000030: bd95 8d3e 6b61 0c3f d0c4 b13d a999 e53e
0.50868404 0.22854434 0.28728503 0.12232992 0.46929398 0.5124983 0.5418579 0.7318061
0.43880177 0.40714484 0.42397913 0.28316346 0.27653304 0.5483615 0.08680117 0.44843796

l2.weight f4 [16, 16]
00000000: 8f26 443f 621b 533f bbbd 143f 5b1f 1f3f
00000010: b787 a43e 2b1f 9abe bcb7 1f3f 03e8 91be
00000020: 53a7 be3e dfba a43e 20ce 46bf a76e dd3e
00000030: 53b0 2e3f 27a7 113e ed64 84be ba01 753e
00000040: eef6 233f 4b8f d13e 1e07 073e 1b1a cd3e
00000050: 175e 24bf bbb7 b13e 1036 203f a07b 96be
00000060: 4689 b3be 7b1b b5be 3aa3 44bd 0ba4 aa3e
00000070: 6a0f 9bbe d4ec 0ebf a353 763e 6682 d73e
00000080: 261f fdbe 0494 213f 4288 083f d1fc 543e
00000090: f758 d63d bd96 773e 978d 2b3d fcbf 70be
000000a0: 0612 21bc d69d 363f 1517 43be f14b fa3e
000000b0: 3f03 313f 7b20 353f 064c a3be d70b f5bd
000000c0: e392 083d 0eea 963d c3bd cb3e 35b0 df3e
000000d0: a9fc 543f b346 07bf 9a47 803e eae4 483f
000000e0: 4cce 133f 29b2 703d a041 0c3f 636b a73a
000000f0: 5d8d fb3e d78b 803f c70e 3dbf 2d7e 26bf
00000100: 4293 253e d017 93bd 9e21 24be 9cae 0b3e
00000110: 04e0 fabd 985e ff3d 5a7c 30be 8c92 2cbe
00000120: 1cc0 4dbe f84e 383d f817 b73d 045f ffbd
00000130: c882 673e 20d4 edbc 9c8c 3bbe 3084 91bc
00000140: 5cf1 da3e aad9 5a3f 31ec d9bd 3c5f a43e
00000150: 680a 243e 91c9 42be a222 9fbe 773c c13e
00000160: c844 253f f031 38bf 89a8 6bbe 2956 e73e
00000170: 6499 da3e d8b7 85bc 5b32 febe b7a3 773f
00000180: 1e46 183f 81f5 b93e 8a1d 373f 6c5d 893e
00000190: 6c6f de3e 0452 dbbe c568 283f 2362 9cbe
000001a0: c4c9 c0be 1899 213f cd63 993e be65 ea3c
000001b0: a377 ad3e 39ad c83e 870a 2dbf dbe8 10bf
000001c0: 19b2 be3e b7c0 273e d342 143f 90f5 4c3f
000001d0: e6f1 e8be eed9 bf3e 33a4 6a3e 2e9f 9d3d
000001e0: 8845 c6be 2da1 febe 74d1 083e f673 b73e
000001f0: 0bf5 09be 0faa 33bf 6632 1e3f 476c 12bf
00000200: 3663 3dbf 417d 943e ee70 d33e b2eb 0a3f
00000210: 102b bbbe 0d06 2a3f baf8 02bf b142 463f
00000220: 47a5 2e3f a347 ccbd 04ea 133f ed77 1f3f
00000230: 8d0b c9be 2078 d73e 4aae 393f 37bf da3d
00000240: a0b6 c83e b4f8 f6be d6f1 8dbe 3ec5 1b3f
00000250: 91bc 4d3f bda6 12be d7b0 62be 73fa 5b3f
00000260: b0a6 433f 9a8a 263d 20b0 1abd 909b a03e
00000270: 0c1b 2e3e 0d22 3f3f 512c b6be 4d9c 9bbd
00000280: 3107 ce3d f1f1 dd3e e09d 2c3f 7004 9cbe
00000290: dc62 b1bd 4141 b03c c79e 563f dca2 06be
000002a0: 1bc2 08bf 88e6 663f e821 a43e 7915 24be
000002b0: 6519 293f db92 3f3f 0c25 2ebf 730a a2be
000002c0: d4fa 153d a30c a7be cda3 d0bd e663 2ebf
000002d0: d7c6 4cbe 0821 7f3f d2d6 bf3e 4d16 223f
000002e0: 7fef 73be ae54 903e ea89 953f 95ff 2fbf
000002f0: 4363 63bf 4436 e43e 6471 273f 342a 143f
00000300: 3577 4a3f 48e7 a13e 3a1f 85be e291 463f
00000310: 6871 d1be 5311 49be d063 4f3f 63ad bbbd
00000320: f3c2 2d3f 7142 ed3e 74ae 533e 9594 7abd
00000330: 29de 05bd e2f9 babb d3b4 80be 915e 6fbe
00000340: 14fa 193e f768 8cbe 17b8 fabe 093f a6be
00000350: 555f cc3b 4b92 633f 3ff0 413f 66c9 873e
00000360: e25a 80be 6b94 933e b828 913f f356 22bf
00000370: 5d32 24bf 88bd 913e 82a5 b43d 0c02 ef3e
00000380: 822a a23d 5bb9 ec3e 6dd6 083e 0a78 1fbf
00000390: d86c 543f 049f 043f d066 bc3b ef96 113e
000003a0: 2a5e abbe a003 cabe 0a73 9cbd 9908 103f
000003b0: 0c34 103d f133 e3be 898a abbe 9a05 7d3f
000003c0: 21ab b63d 9256 23bd e5a3 063f a505 513e
000003d0: 61fe 303f acba 81bf 5144 ba3e 2675 063f
000003e0: 6b18 263f 3b37 f83e e448 14be b0db 063e
000003f0: b99a 0d3f 0754 243f d661 69be 1c6f 28bf
0.76621336 0.8246366 0.58102006 0.6215722 0.32134792 -0.30101904 0.6238973 -0.28497323
0.37237033 0.3217382 -0.7765827 0.43248484 0.682378 0.1422392 -0.2585825 0.2392644
0.6404866 0.40929636 0.13186309 0.4005898 -0.6420607 0.34710488 0.6258249 -0.29391193
-0.3506567 -0.35372528 -0.048007227 0.3332828 -0.30285197 -0.5583012 0.24055342 0.42091674
-0.49437827 0.6311648 0.5333291 0.20799567 0.104661874 0.24178596 0.041883077 -0.23510736
-0.009830957 0.7133459 -0.19051774 0.48886064 0.6914558 0.70752686 -0.3189394 -0.11965149
0.033343207 0.07368861 0.39793214 0.43689123 0.8319803 -0.52842253 0.25054628 0.78474295
0.5773666 0.058763657 0.54787636 0.0012773093 0.4913129 1.0042676 -0.73850673 -0.6503628
0.16169456 -0.07182276 -0.16028449 0.13640827 -0.12249759 0.12469214 -0.17234936 -0.16852778
-0.20092815 0.044997185 0.089401186 -0.12469295 0.22608483 -0.029031813 -0.18315357 -0.017763227
0.42762268 0.8548838 -0.10640753 0.32103908 0.16019595 -0.19022204 -0.3108111 0.37741444
0.64558077 -0.719512 -0.2301351 0.45182922 0.42695153 -0.016323015 -0.49647793 0.96734184
0.5948199 0.36320117 0.7152945 0.26829088 0.43444383 -0.4283601 0.65784866 -0.30543622
-0.37653935 0.6312423 0.29958954 0.028612968 0.33880338 0.39194658 -0.6759419 -0.5660531
0.37245253 0.16382109 0.57914466 0.800622 -0.45497054 0.37470955 0.229142 0.07696377
-0.38724923 -0.49732342 0.1336115 0.3583066 -0.13472383 -0.70181364 0.6179565 -0.5719647
-0.7397951 0.2900181 0.41297096 0.5426589 -0.36556292 0.6641548 -0.51160777 0.77445513
0.68220943 -0.09974601 0.57778955 0.6229237 -0.39266625 0.42083836 0.7253157 0.106810026
0.39201832 -0.4823662 -0.2772357 0.6084784 0.80365855 -0.14321418 -0.22137772 0.8592903
0.7642622 0.040659525 -0.037765622 0.31368685 0.17002505 0.7466133 -0.35580686 -0.075981714
0.100599654 0.4334865 0.674284 -0.30472136 -0.08661434 0.02151549 0.83836025 -0.13148063
-0.5342118 0.9019551 0.32057118 -0.16023816 0.66054374 0.7483346 -0.6802528 -0.31648597
0.03661616 -0.3262683 -0.101874925 -0.6812118 -0.19997726 0.99659777 0.37468582 0.6331528
-0.2382183 0.28189605 1.1682713 -0.6874936 -0.88823336 0.4457265 0.65407395 0.57876897
0.79088145 0.31621766 -0.26000386 0.7756635 -0.40906835 -0.19635515 0.81011677 -0.0916393
0.67875594 0.46339753 0.20672017 -0.061176855 -0.03268257 -0.005706058 -0.25137958 -0.23375918
0.15036803 -0.27423832 -0.48968574 -0.32469967 0.0062369504 0.888951 0.7575721 0.26520842
-0.25069338 0.2882417 1.1340551 -0.63413924 -0.6413935 0.28464913 0.088206306 0.4668125
0.07918264 0.46235165 0.13363047 -0.6229254 0.8297858 0.5180514 0.005749561 0.14217733
-0.3347028 -0.3945589 -0.076391295 0.5626312 0.035205886 -0.44375566 -0.3350413 0.9883667
0.08919359 -0.03987748 0.52593833 0.2041231 0.6913815 -1.0135093 0.36380246 0.52522504
0.6488101 0.48479638 -0.1448093 0.13169742 0.55314213 0.64190716 -0.22791228 -0.6579454

l2.bias f4 [16]
00000000: c8c7 803d 04c2 223e d797 e63c a5b0 c23e
00000010: 701c 80bd 9838 f63e afef 323e 7713 b1bd
00000020: 942e f63e 8b2b 4e3e fd6a 923e 1c7e 123f
00000030: b135 863e 8517 c23e ca70 b23e ea7e 423e
0.06288105 0.15894324 0.028148575 0.38025394 -0.06255424 0.48090053 0.17474245 -0.08646291
0.4808241 0.20133798 0.2859725 0.5722368 0.26212838 0.3790857 0.34851676 0.18993726

l3.weight f4 [9, 16]
00000000: ac00 2f3e e762 f6be 6716 333f 943b c4bd
00000010: e8bf 7e3e 5a8d 693e f2a7 c83d 171b 45bf
00000020: 91a2 ea3b d8ec 51bf 3982 e23e e501 20bf
00000030: 1d9b 15bf f97a 40bf ffab 153f a7b1 91be
00000040: d508 19bf 3431 03be 177d 9dbe 3822 22bf
00000050: 00ad 3bbb e209 90bf b1c4 f4be 007e 0c3f
00000060: 9f1e c03e 6687 5abf f966 43bf deb4 093f
00000070: d157 04bf 9c88 f43e b20b c9be 2ca1 34bf
00000080: 6ca6 09bf 04a1 5cbf a78b 92bf 756b 923d
00000090: 3004 2b3d 64a6 c53e d1b3 3abf fbfb 50bf
000000a0: 751c 883d d82f cf3e 4588 5abf 0562 dd3e
000000b0: 1222 02bf ee2b d33e 6e21 1d3f 4afd 30bf
000000c0: 90ee 88be a571 46bf cbd1 073e cb8b 653e
000000d0: c01c 11bd eeaa 45bf 5cf4 2c3d ecd7 37bf
000000e0: 919b 643e be25 a5bd 8ccb c43e 0017 f03e
000000f0: 9355 433e 515f c03e 1ee2 91bf 8852 4d3c
00000100: e0e5 a13e 958e 8d3d ab69 133e 3d8e 10bf
00000110: 3cdc 473e 055e 9b3e 6299 45bf 638d ca3d
00000120: 62e4 003f 8f7a aebd f86a 57bf e179 a3be
00000130: d884 c83c 7ed0 7cbf 38a1 993e 0528 83bf
00000140: 6e04 c03e 736b 50bf 57e5 513e b3c2 1b3e
00000150: a05d c83c 304a 30bf d6c2 ef3e ee57 f8be
00000160: c108 80bf 792b 853e 1dcb 883e 931f 38bf
00000170: 0128 a13d 8049 fdbe e230 80bf 5ee5 fb3e
00000180: 819e 653e d85d 7c3e bea5 6cbf 4bd2 37bf
00000190: f62d 07be 84be 233b 06c3 dbbd 6c04 16bf
000001a0: 4f2c 43bf e807 51bf f767 a6bc 4bbf 0d3f
000001b0: 56ef 933e ee4e 123f 998c fe3e c981 72bf
000001c0: c082 803e 7e66 da3e 12ec d8be cc97 c73d
000001d0: deb8 30be fa5d fb3d 6ea3 d53e 3bef 123f
000001e0: 24bb 00bf ba73 16bf 8c6c c73d 38ca 76bf
000001f0: 1b15 b03e 673b 8fbe 6cc6 41bf 61e4 e6be
00000200: 2d73 4f3d 9bc7 3fbf c91d 9abe b148 ad3e
00000210: 9864 8d3d 2e15 153f 7d01 f3be 3b94 23bf
00000220: de11 183e 5efe 303f 7d7e 4dbf 82fb 28bf
00000230: 7074 593d 4c95 80bf 55ef 6abe 5127 f83e
0.170901 -0.48122332 0.6995606 -0.09581676 0.24877894 0.22807828 0.09797658 -0.7699446
0.0071604927 -0.8200202 0.44239977 -0.6250289 -0.5843981 -0.7518764 0.5846557 -0.2845585
-0.597791 -0.12811738 -0.30759498 -0.63333464 -0.0028637052 -1.1253016 -0.47806314 0.5487976
0.37523362 -0.8536285 -0.76329 0.53791606 -0.516965 0.47760475 -0.39266735 -0.7055843
-0.53769565 -0.8618319 -1.1448869 0.07149402 0.04175204 0.38603508 -0.7293063 -0.8163449
0.06646053 0.4046619 -0.8536418 0.43238845 -0.5083324 0.41244453 0.61379135 -0.6913649
-0.2674451 -0.7751716 0.13263623 0.22416608 -0.03542781 -0.77213943 0.042225227 -0.71813846
0.22324969 -0.080638394 0.38436544 0.46892548 0.19075613 0.3757272 -1.139713 0.012531884
0.31620693 0.06911961 0.14395778 -0.5646704 0.19517606 0.3034517 -0.7718717 0.098902486
0.50348485 -0.0851947 -0.84147596 -0.31928924 0.024477407 -0.98755634 0.30005813 -1.0246588
0.3750338 -0.81413954 0.20497642 0.1521099 0.024458706 -0.688632 0.46828336 -0.48504585
-1.0002671 0.2600973 0.26717463 -0.7192318 0.07868958 -0.4947014 -1.0014918 0.4919843
0.22423746 0.24645174 -0.924404 -0.71805257 -0.13201126 0.0024985382 -0.10730557 -0.586005
-0.76239485 -0.8165269 -0.020313246 0.55370015 0.28893536 0.5715169 0.49716642 -0.94729286
0.25099754 0.4265632 -0.42367607 0.0974575 -0.17258021 0.12273784 0.4172625 0.57396287
-0.50285554 -0.58770335 0.097375005 -0.9640231 0.34391102 -0.27975008 -0.7569339 -0.45096114
0.05064695 -0.7491395 -0.3010085 0.33844522 0.06903952 0.5823544 -0.47462073 -0.63898057
0.14850566 0.69138134 -0.8027113 -0.6600877 0.05308956 -1.0045562 -0.2294286 0.48467496

l3.bias f4 [9]
00000000: f2a0 c83d 40bb 153e 1699 483d c9da fe3d
00000010: 2b5b 1bbd 6433 923c 1608 4e3e 6146 4cbe
00000020: b9ef 2cbe
0.09796323 0.14622211 0.04897412 0.12444074 -0.03792874 0.01784677 0.20120272 -0.19948722
-0.16888322
