data_nn.pth (torch, 5576 bytes, 6 tensors)

l1.weight f4 [8, 54]
-0.5010532 -0.09154661 0.6096602 0.4318987 0.42004701 0.5158213 0.2769978 -0.10283053
0.22500819 0.06731761 0.8021046 0.5206189 0.44107404 0.23359327 0.3470137 -0.32140595
0.37886363 0.5738787 -0.29890403 0.65341735 0.60835516 0.5996061 0.62392324 -0.03853739
0.20662934 0.6138496 0.19563033 -0.6180418 0.0740782 0.42568746 0.346242 0.020884931
-0.30663535 0.24984863 0.4234547 0.41808322 0.11339403 0.36826444 -0.9925701 0.1889406
0.3037238 0.7930354 -0.67211294 0.095171764 -0.53456336 0.64621025 0.20131873 0.7329735
0.19139469 -0.18559474 0.56093305 0.14412583 0.1293869 -0.52728766 0.18738964 0.30021334
-0.6292577 -0.2684786 -0.51070344 -0.29219347 0.30183133 -0.24251115 0.6310996 0.24220227
0.6075165 -0.2492568 -0.82537794 0.1753383 0.47155872 -0.23203892 -0.165543 -0.4366245
0.32320565 -0.3636961 -0.4618164 -0.4351058 0.14976494 0.25858077 0.12657775 -0.200533
-0.26610798 0.7624591 0.24207045 -0.30489838 0.6327037 0.16952635 0.42124847 0.4472178
0.46931997 0.6293297 0.20695964 -0.3496704 1.0819904 -0.19810988 0.6827544 0.56221354
0.15669246 -0.19356237 0.70451087 -0.50588715 0.21252488 -0.41295007 -0.017199771 0.5148592
0.5157525 0.09046606 0.06606137 0.41420606 0.49075857 0.07048384 0.45167905 0.36960712
0.460006 0.058859654 -0.1566453 0.64106154 -0.11583847 0.030556701 -0.31029668 0.64509785
0.97294736 0.088320315 -0.13284914 0.5991277 -0.092542134 -0.52273655 0.3954948 -0.5163287
-0.5227705 -0.5229765 -0.0086275805 -0.11559424 -0.025703914 0.08411685 0.39110997 -0.67301565
0.20928094 0.3656797 -0.43764168 -0.011285355 -0.40266818 0.014699426 -0.19136102 -0.05913476
-0.07724159 0.19695057 -0.49005386 0.38628858 0.31243405 -0.0651285 0.9123849 0.43710977
0.43369237 0.0010554352 -0.16538742 -0.3383904 0.040059518 0.026040385 -0.0882222 0.06992465
-0.029569687 0.44798973 0.20738381 -0.04940423 -0.6017125 -0.3996107 -0.4946012 -0.3602037
-0.046280406 -0.5530059 0.1951422 0.25836948 -0.57872075 0.6727056 0.98956627 0.2180408
-0.049317375 -0.598925 -0.18058488 0.5053836 0.46402347 0.34695968 0.55121005 0.48099455
0.07963718 0.11433448 0.17836641 -0.54799324 -0.25671092 -0.4533652 0.16457607 0.4069576
-0.3637047 0.16962272 0.28158548 -0.10518715 0.06866892 0.23784709 -0.23352928 0.29367775
1.037007 -0.3205515 -1.2547659 -0.36819133 0.6654662 0.4080098 0.44826216 0.37013602
0.16883583 0.406956 0.18836294 0.21456301 -0.25827846 0.13414872 0.045518693 -0.11856143
0.43511465 0.10986636 0.145401 -0.2860524 0.5514595 -0.22128487 -0.10499324 0.8227491
-0.02946718 -0.24217212 -0.37934017 -0.1390807 0.6322868 -0.16025592 -0.11162305 0.5715839
-0.0015200339 0.5750123 0.51567984 0.42241725 0.51791066 0.3853633 -0.30205786 -0.07117299
-0.2789897 -0.37651744 0.46052593 -0.29023403 0.36979783 -0.06989356 0.044656705 -0.02537319
0.5770464 0.014038101 0.060613945 -0.15933 -0.14568897 -0.17756559 0.27335665 0.46728957
00000000: 0645 00bf ca7c bbbd b112 1c3f d421 dd3e
00000010: 6710 d73e dd0c 043f a8d2 8d3e d098 d2bd
00000020: 8c68 663e d1dd 893d ba56 4d3f 4847 053f
00000030: 75d4 e13e 1333 6f3e c8ab b13e 528f a4be
00000040: 6afa c13e b7e9 123f f309 99be 5c46 273f
00000050: 2abd 1b3f c97f 193f 6fb9 1f3f 62d9 1dbd
00000060: a496 533e 3f25 1d3f 5153 483e fd37 1ebf
00000070: 50b6 973d b5f3 d93e a246 b13e e016 ab3c
00000080: 4fff 9cbe 52d8 7f3e 0ecf d83e 010f d63e
00000090: 213b e83d 288d bc3e 1319 7ebf a579 413e
000000a0: b081 9b3e 5e04 4b3f 980f 2cbf 6ae9 c23d
000000b0: 25d9 08bf 096e 253f 7f26 4e3e 27a4 3b3f
000000c0: f8fc 433e 8c0c 3ebe 4f99 0f3f b995 133e
000000d0: 007e 043e 53fc 06bf 12e3 3f3e 90b5 993e
000000e0: 0817 21bf 0776 89be 76bd 02bf 629a 95be
000000f0: a389 9a3e d854 78be be8f 213f df03 783e
00000100: 3486 1b3f 2d3d 7fbe f84b 53bf e28b 333e
00000110: 2570 f13e 9c9b 6dbe 1b84 29be 3f8d dfbe
00000120: 367b a53e 6036 babe 3373 ecbe 30c6 debe
00000130: fb5b 193e b364 843e 999d 013e 8658 4dbe
00000140: 4e3f 88be 8530 433f 51e1 773e a41b 9cbe
00000150: dff8 213f 5198 2d3e e1ad d73e bbf9 e43e
00000160: b54a f03e c01b 213f 3aed 533e 0008 b3be
00000170: a97e 8a3f 51dd 4abe fec8 2e3f 3aed 0f3f
00000180: fd73 203e 3735 46be d35a 343f d281 01bf
00000190: 1fa0 593e 316e d3be 89e6 8cbc d0cd 033f
000001a0: 5b08 043f 4546 b93d 2f4b 873d d112 d43e
000001b0: b544 fb3e d559 903d 7a42 e73e 253d bd3e
000001c0: e885 eb3e d216 713d a067 20be 9c1c 243f
000001d0: b83c edbd 0c52 fa3c 35df 9ebe 2225 253f
000001e0: 1413 793f 48e1 b43d 9b09 08be 6f60 193f
000001f0: bb86 bdbd 10d2 05bf 4b7e ca3e 1e2e 04bf
00000200: 4ad4 05bf cae1 05bf b25a 0dbc acbc ecbd
00000210: 0491 d2bc 7445 ac3d 913f c83e c14a 2cbf
00000220: be4d 563e 5f3a bb3e 9212 e0be 36e6 38bc
00000230: 862a cebe dcd5 703c 25f4 43be 4a37 72bd
00000240: d730 9ebd 69ad 493e 57e8 fabe 9ec7 c53e
00000250: 5bf7 9f3e 1762 85bd 0f92 693f dacc df3e
00000260: ed0c de3e 8756 8a3a 525b 29be 8241 adbe
00000270: 7315 243d a552 d53c d7ad b4bd a834 8f3d
00000280: 213c f2bc e95e e53e 6c5c 543e 175c 4abd
00000290: d509 1abf c699 ccbe 5e3c fdbe 9f6c b8be
000002a0: 8690 3dbd cb91 0dbf 5bd3 473e 0149 843e
000002b0: 0b27 14bf 6f36 2c3f 3754 7d3f 1646 5f3e
000002c0: 0401 4abd 2653 19bf 3eeb 38be d260 013f
000002d0: 7c94 ed3e b3a4 b13e 1a1c 0d3f eb44 f63e
000002e0: d118 a33d 3228 ea3d afa5 363e 4949 0cbf
000002f0: 9d6f 83be 7c1f e8be a186 283e bf5c d03e
00000300: 8137 babe 94b1 2d3e f92b 903e 5c6c d7bd
00000310: 4aa2 8c3d 308e 733e 4d22 6fbe ee5c 963e
00000320: a5bc 843f 541f a4be 2b9c a0bf 9383 bcbe
00000330: fe5b 2a3f a9e6 d03e 9e82 e53e 7882 bd3e
00000340: 4de3 2c3e 895c d03e 37e2 403e 68b6 5b3e
00000350: 133d 84be 485e 093e cf71 3a3d 56d0 f2bd
00000360: 59c7 de3e 9d01 e13d 00e4 143e 7675 92be
00000370: 732c 0d3f 8098 62be b206 d7bd af9f 523f
00000380: 2865 f1bc f8fb 77be e038 c2be 2c6b 0ebe
00000390: 8cdd 213f 211a 24be a09a e4bd 5353 123f
000003a0: e03b c7ba 0234 133f 9803 043f 1347 d83e
000003b0: cb95 043f 574e c53e 54a7 9abe 25c3 91bd
000003c0: bdd7 8ebe e5c6 c0be 0eca eb3e 8e99 94be
000003d0: 2456 bd3e 5b24 8fbd f3e9 363d 70db cfbc
000003e0: 50b9 133f 1000 663c 5446 783d 6727 23be
000003f0: 7d2f 15be c1d3 35be 67f5 8b3e 9440 ef3e

l1.bias f4 [8]
0.7656955 0.64511824 0.5228422 0.7023163 0.9848252 0.7733644 0.4602919 0.7203191
00000000: 9f04 443f 7826 253f fdd8 053f 00cb 333f
00000010: 811d 7c3f 36fb 453f 61ab eb3e d566 383f

l2.weight f4 [8, 8]
-0.52240366 0.6598569 -0.93034875 1.2607158 0.7600367 1.3716221 0.5829802 -0.98924094
0.12213507 1.2092658 -0.79615235 0.5591078 -0.9469343 -0.40316167 0.7277256 0.86860406
0.99773985 -0.6169944 0.008340663 -0.6096627 0.19992855 0.7005202 0.9627182 1.0134043
-0.15533148 -0.31896004 0.26051158 -0.21357797 -0.40136215 0.11528637 -0.13417205 0.27577847
-0.82679904 0.4873535 1.5399824 0.7469559 0.49943793 -0.77059984 -0.13450813 0.8131609
0.46467748 -0.62287694 1.1107918 1.2087457 1.1824139 1.0309643 0.117748156 -0.49804416
0.52136403 0.5983998 -0.72804934 0.115688056 0.842081 0.1916052 -1.3339792 1.3007993
-0.98120105 0.21437304 0.9255975 -0.8966295 0.86780554 1.0194283 0.58981156 0.7054253
00000000: 3fbc 05bf 62ec 283f 562b 6ebf 235f a13f
00000010: c491 423f 5091 af3f 313e 153f e53e 7dbf
00000020: f421 fa3d 39c9 9a3f a4d0 4bbf b021 0f3f
00000030: 496a 72bf 356b cebe 3a4c 3a3f d65c 5e3f
00000040: e16b 7f3f 58f3 1dbf 47a7 083c db12 1cbf
00000050: 12ba 4c3e 4b55 333f b374 763f 3bb7 813f
00000060: 370f 1fbe bb4e a3be c661 853e 2fb4 5abe
00000070: 577f cdbe 431b ec3d 6664 09be d632 8d3e
00000080: 1aa9 53bf 6686 f93e 251e c53f 8038 3f3f
00000090: 54b6 ff3e 0846 45bf 80bc 09be 502b 503f
000000a0: 35ea ed3e dd74 1fbf 6d2e 8e3f 2eb8 9a3f
000000b0: 5759 973f a3f6 833f f225 f13d a5ff febe
000000c0: 1d78 053f bb30 193f 7161 3abf dced ec3d
000000d0: 9f92 573f 2734 443e d5bf aabf 9780 a63f
000000e0: fe2f 7bbf 9b84 5b3e f5f3 6c3f 8389 65bf
000000f0: 8128 5e3f a07c 823f e4fd 163f c196 343f

l2.bias f4 [8]
0.42899793 0.61867136 0.20462237 -0.27898 0.23550402 0.5844808 0.50634724 0.3022714
00000000: 9ea5 db3e 3f61 1e3f 8788 513e 77d6 8ebe
00000010: f727 713e 89a0 153f f99f 013f 51c3 9a3e

l3.weight f4 [9, 8]
-0.83740777 -0.62068576 1.0131729 -0.037546802 -1.5404062 0.12290657 -0.6198412 0.39952323
-0.4375165 0.040289935 0.13513605 -0.074140705 0.5591841 0.6737895 -1.3696351 -1.1819112
-1.1049256 -1.147523 -0.018197507 0.039275542 0.6072448 0.21133244 0.39114964 0.5762788
0.5165407 -1.2204866 -0.23262167 0.014219035 -1.7725242 0.68940616 0.7815459 -0.34518203
0.42029947 0.6634359 0.32409033 0.21043655 -1.545274 -0.7565545 -1.1735765 0.18420385
-0.95229554 0.509481 0.06559236 -0.1248432 -0.13237499 -1.0715474 0.5485844 -0.8757429
0.74261194 0.09397754 -1.7635583 0.061022975 0.37727788 0.17899813 -0.027581384 -0.5864293
-0.5140585 0.27107686 -1.3293048 -0.20454927 0.8173568 -1.329022 0.39783332 0.31605574
0.4318892 -1.1140448 -0.85567236 0.21392827 0.37800926 0.5408091 -1.4414513 0.5706825
00000000: 5b60 56bf 43e5 1ebf a6af 813f adca 19bd
00000010: 082c c5bf 71b6 fb3d eaad 1ebf 4f8e cc3e
00000020: 2a02 e0be 0f07 253d 1b61 0a3e 15d7 97bd
00000030: b026 0f3f 787d 2c3f 3450 afbf de48 97bf
00000040: 346e 8dbf 09e2 92bf f012 95bc 64df 203d
00000050: 6574 1b3f 8867 583e c444 c83e 0287 133f
00000060: 033c 043f e838 9cbf 6034 6ebe f5f6 683c
00000070: 13e2 e2bf ec7c 303f 6413 483f b3bb b0be
00000080: 7e31 d73e efd6 293f 2bef a53e ae7c 573e
00000090: 8acb c5bf 8ead 41bf c137 96bf ef9f 3c3e
000000a0: a4c9 73bf 596d 023f 4a55 863d cbad ffbd
000000b0: 4f8d 07be 7728 89bf 0770 0c3f b030 60bf
000000c0: d11b 3e3f 4c77 c03d 47bc e1bf 3af3 793d
000000d0: 912a c13e 494b 373e 5bf2 e1bc 3b20 16bf
000000e0: 5699 03bf 96ca 8a3e a926 aabf 5d75 51be
000000f0: 4c3e 513f 651d aabf cfb0 cb3e 0fd2 a13e
00000100: 9520 dd3e 0599 8ebf 580d 5bbf 0310 5b3e
00000110: 6e8a c13e 7772 0a3f 7a81 b8bf 4018 123f

l3.bias f4 [9]
0.24120645 -0.100958176 -0.31236488 0.08545199 -0.38290572 0.31521314 -0.0875256 -0.4056057
-0.24756597
00000000: d3fe 763e 29c3 cebd 4aee 9fbe 7401 af3d
00000010: 380c c4be 9e63 a13e 9f40 b3bd 8dab cfbe
00000020: ef81 7dbe
